actor.pth (torch_old, 285864 bytes, 6 tensors)

fc1.weight f4 [300, 33]
000000 1d 10 14 3e fa a4 9c 3d 1d 22 85 bd 6b 4c 6e ba
       0.14459272 0.07648654 -0.06500647 -0.00090903667
000010 db 6d f0 3d ff 78 81 bc e6 2b 66 bd 9d 7b 2c 3d
       0.11739703 -0.015804766 -0.05619421 0.042110074
000020 b9 f0 92 bd 6e 1f 65 3b 76 0d 53 3d 4f 69 91 bc
       -0.071748205 0.003496136 0.05152651 -0.01775041
000030 3f cc bd bd 0a 9a c7 bd cc b4 23 be 18 9f f1 bc
       -0.092674725 -0.097461775 -0.15986937 -0.029494807
000040 d2 01 b3 bc 0a 3e e3 3c 67 15 18 bd 24 23 04 bc
       -0.021851454 0.027739543 -0.037129786 -0.008065019
000050 74 f0 34 3d dc b8 2e bd ff 95 e3 3c 31 c3 9b bd
       0.044174626 -0.042656764 0.027781485 -0.07605589
000060 4d 3e 8b bd 24 08 b1 bc 66 5d fe bd da 99 6e bd
       -0.06798992 -0.021610327 -0.12420158 -0.058252193
000070 c5 a5 1e 3d e2 83 b8 bc 1a 64 ae bc 80 1e a3 39
       0.03873231 -0.022523824 -0.021287967 0.00031112507
000080 b6 9b b5 3d 4d 13 6e bd 52 7c 0f bd 4d 94 84 3d
       0.0886759 -0.058123875 -0.03503067 0.06473599
000090 7d c9 ae 3c 52 89 81 bd 67 43 61 3c 07 9a 02 3d
       0.021336311 -0.0632502 0.01374898 0.031885173
0000a0 be 52 28 bc 0a 4b 14 3e 67 fa 32 3c f5 3b 03 bd
       -0.0102736335 0.1448175 0.010923958 -0.0320396
0000b0 f2 5f c3 bc fe 5f 1c 3d d1 b9 4c 3d c3 0a dd 3d
       -0.023849461 0.038177483 0.049981896 0.10793068
0000c0 fb ef f2 bd b0 96 78 3b 2e 11 47 3d 19 6d 3c 3d
       -0.11862179 0.0037931614 0.04860037 0.04600248
0000d0 ff 7b de bc 76 3d d4 bd f0 68 20 3d 84 8f c6 3b
       -0.027158735 -0.10363285 0.039162576 0.006059589
0000e0 91 b2 16 bd f7 95 53 3d 44 0b 0f bd a5 6c 30 be
       -0.036791388 0.05165669 -0.034922853 -0.17228945
0000f0 f4 05 e2 bc 7b ff 2a 3d d0 a8 4d 3b 48 13 0d 3d
       -0.02759073 0.04174755 0.0031381138 0.034442216
000100 0a 1d 90 bc 79 f3 13 3f 4b c8 e3 bd 34 b0 94 bc
       -0.017591972 0.57793385 -0.11122187 -0.018150426
000110 6c 21 58 bd f7 79 4d bd e1 42 80 bd 0d 64 97 bd
       -0.05276625 -0.050165143 -0.06262756 -0.0739213
000120 dc c5 d2 3c db 4d 10 bc 65 17 17 bd b6 ac d4 bd
       0.025729112 -0.008807625 -0.036887545 -0.103845045
000130 fc 32 d4 bd 6d e3 3d 3e 38 bf 43 3b 32 17 22 bd
       -0.10361287 0.18543787 0.0029868614 -0.039572902
000140 5d 1e 0a 3e 40 6e e1 bb 51 18 c0 3d da ee cd 3c
       0.13488145 -0.006879598 0.09379638 0.025138307
000150 65 a0 b2 bd 62 9b 5a 3d e6 53 c4 3d 45 93 34 be
       -0.08721999 0.05337084 0.09586315 -0.17634304
000160 37 a8 d0 3d 9c 1d 9a be ce 0f e9 ba 77 d2 4a 3d
       0.101883344 -0.30100715 -0.00177812 0.04951712
000170 a9 cf 98 3d 23 6a a2 bd 4a ea 69 3c 68 f5 fe 3c
       0.07461483 -0.079304 0.01427705 0.031122878
000180 a2 3b 4f 3c bc 53 a2 3c 9c 21 56 be 75 c7 7d 3d
       0.012648495 0.019815318 -0.20911258 0.061957795
000190 6a 94 fd bc 92 38 37 3c 5b 12 1a 3d 86 e7 b9 bc
       -0.030954558 0.011182921 0.03761516 -0.022693407
0001a0 14 bc 01 bd 94 48 da 3d 32 2a 87 3b 78 21 0e 3e
       -0.031673506 0.106583744 0.004124903 0.13879955
0001b0 8c 37 d7 bc 65 03 3d 3d 7a c3 0c bd a4 bc a4 bb
       -0.026271604 0.046145815 -0.03436611 -0.0050273705
0001c0 e9 60 67 3e bb ff 12 bd 8d 72 d5 bc 95 af 4c 3c
       0.22595562 -0.035888415 -0.026055599 0.012493034
0001d0 2c 97 9a bd 06 e5 09 bc 15 a5 2d bc 4d 7c 1d be
       -0.07548365 -0.00841642 -0.010598441 -0.15379448
0001e0 b1 10 84 3d cc c5 d4 bc 6d 1d a1 3d 95 6d 63 3d
       0.06448496 -0.025973223 0.07866941 0.055524427
0001f0 e7 47 68 bd 25 70 11 be 21 17 a1 bd 2a a4 65 bd
       -0.056709196 -0.14202936 -0.078657396 -0.056064762
000200 14 8d e1 3c 17 a7 a1 3d a1 52 49 bd 72 a0 e4 3e
       0.027533092 0.07893198 -0.049151067 0.4465366
000210 4a aa ca 3d 9a 8e 44 bd 39 57 0b be 9f fe 9f 3d
       0.09895761 -0.047987558 -0.13607492 0.07812237
000220 7b 96 34 3c 5f 2a bc bd 91 56 14 bc 51 f9 c0 3d
       0.011022205 -0.09187769 -0.009053842 0.09422553
000230 a1 7c c2 3d 04 7a c8 bd a6 20 eb 3d b0 6a 40 bd
       0.09496427 -0.09788898 0.114808366 -0.046976745
000240 95 61 dd bd 98 bc 07 be a0 75 23 3c 7a 23 b2 3a
       -0.10809628 -0.13255537 0.009976774 0.0013590895
000250 c7 96 cf bd 1e b0 27 3c 2d 20 11 3d 0c 4a 0a bd
       -0.1013618 0.010234861 0.035431076 -0.033762023
000260 b8 b4 e9 bd 6f 31 14 3c c6 3d 84 bd 13 9f ab 3c
       -0.114114225 0.009044989 -0.06457095 0.020949876
000270 7a f6 af 3d 5a 69 d4 bb 3d 75 aa 3d 05 0a 82 bc
       0.085919335 -0.0064822854 0.08323143 -0.015873918
000280 2b 63 db 3c 28 b5 49 3c 23 4a 59 3d f0 7e ac bb
       0.026780685 0.012311257 0.053049218 -0.0052641556
000290 34 fc 60 be d4 61 28 3d b2 d2 31 3d 33 09 e8 3b
       -0.21971208 0.04110892 0.043413825 0.0070811748
0002a0 f8 dd 9d bd e9 f8 cc bd 36 15 ea bc 14 c9 90 bd
       -0.07708353 -0.10008413 -0.028574567 -0.070696026
0002b0 ff 39 47 3d 45 f2 c9 bd 3b ad 17 3e 6a b7 96 3d
       0.048639294 -0.09860662 0.14812176 0.07359202
0002c0 04 1a fa 3d 24 1b a9 3d 0b 9d 10 3e 1c 87 77 3d
       0.12211993 0.0825713 0.14122407 0.060431585
0002d0 95 b3 a8 3d cb 2a 7f 3d eb 4b 90 3d 85 b4 f9 bc
       0.082373776 0.06229667 0.0704573 -0.030481586
0002e0 75 ad 46 3d 20 45 0c 3d a3 08 f9 3c 6b 30 72 3c
       0.048505265 0.03424561 0.030399626 0.014782052
0002f0 e2 70 58 3d 37 0d 87 3c 56 7e c9 bc 1f 3c df bd
       0.05284203 0.016485794 -0.024596374 -0.10900139
000300 ad 71 ce bd 19 fd e7 3d 24 3d c3 bc 06 9d 04 bc
       -0.10080276 0.113275714 -0.023832865 -0.008094078
000310 e0 66 43 3c 43 4c f1 3d 77 e1 c3 3d f2 6b 25 bd
       0.011926383 0.11782124 0.095644884 -0.040386148
000320 90 a2 92 bd bf 62 67 bd 9d ba 50 bc 13 37 8e bc
       -0.071599126 -0.056490656 -0.012739805 -0.017360246
000330 7c 5a fe 3d 2a 37 4a 3d 0e 44 61 3d 25 a8 9e bd
       0.12419602 0.049369015 0.054996543 -0.07746915
000340 b7 24 19 3c 2d 22 00 bd 2b 73 ec bd 60 7d b5 3d
       0.009347132 -0.031282593 -0.11545404 0.08861804
000350 e4 99 a1 bd b6 17 59 3d e3 59 83 bd 52 5f 85 3b
       -0.078906804 0.053001128 -0.06413629 0.004070201
000360 d8 8a 98 3c 9c 2f b5 3c 24 59 40 bd c8 b8 10 bd
       0.018620893 0.022117428 -0.04696001 -0.03533247
000370 0d ae e9 bd b7 28 ed 3d 7d af 06 bd cf d8 27 bd
       -0.11410151 0.11580031 -0.032882202 -0.04097825
000380 28 3a 26 3d 54 87 92 3d 8a f8 25 bd 70 81 4d 3c
       0.040582806 0.07154718 -0.04052023 0.012543067
000390 a3 87 24 bd ae 0b d6 bc 76 06 e7 3e 8e 47 fd 3b
       -0.040168416 -0.026128616 0.45122117 0.0077294772
0003a0 2c 1e c4 3d 73 cf ce bb 53 a2 24 bd c9 38 5e bc
       0.09576067 -0.006311351 -0.040193867 -0.013563343
0003b0 04 19 b6 bc 33 52 d7 3d 49 f7 91 bd 90 eb 6b 3c
       -0.022228725 0.10513725 -0.07127244 0.014399424
0003c0 51 5a 35 3d aa 68 69 bd ce cd 1b 3d 53 d0 03 3e
       0.044275586 -0.05698458 0.038038068 0.12872438
0003d0 17 2b 8f 3d 33 2b 0b be 26 91 d0 3d 0f 6b 1d 3d
       0.069906406 -0.13590698 0.10183935 0.038432177
0003e0 c4 71 ca 3c 22 c2 cd ba a6 a3 d2 3c d5 b7 84 3c
       0.02471245 -0.0015698115 0.0257128 0.01620094
0003f0 0d 2a 3f 3b 50 be 9f 3d fc 1c 8a bd 57 fc 83 3c
       0.0029169351 0.07799971 -0.067438096 0.016111536

fc1.bias f4 [300]
000000 99 b2 f0 bd 72 db b0 bd 84 92 86 bd 8a 5b ca bd
       -0.11752815 -0.08635606 -0.065709144 -0.09880741
000010 af fc 21 3e 1d e8 04 be cd 1a d3 bc 93 b8 18 be
       0.15819047 -0.12979169 -0.025769616 -0.1491416
000020 a7 6e d8 bd 3b 90 06 be 7d 0f 12 3e 06 aa 8e 3d
       -0.1056798 -0.13140957 0.14263721 0.06966023
000030 54 d6 56 bd 10 99 8d bd ec 50 02 3e 41 3b 1b 3e
       -0.052450493 -0.0691396 0.12726182 0.15159322
000040 c6 55 4f 3c 6a 23 26 3d 9c 39 21 3e f3 d7 25 be
       0.012654727 0.040561117 0.15744632 -0.1619566
000050 38 b6 b5 bc 8d 0c f9 3d 55 55 81 bd 5c b7 53 bb
       -0.022181615 0.12160597 -0.06315104 -0.0032305336
000060 54 ea b1 3d 2d de 0f be f5 a1 04 3e 54 49 8f 3d
       0.08687273 -0.14049597 0.12952407 0.06996408
000070 a8 a7 dc 3c 70 95 b5 3d 9f 8d b3 bd bf 70 f3 bd
       0.026935413 0.088663936 -0.087672465 -0.11886739
000080 b4 14 d8 3d 4e 29 11 be d2 12 f3 bd 51 e8 de 3c
       0.10550824 -0.14175913 -0.11868824 0.027210386
000090 22 b1 38 be 88 e3 0b 3d 33 a1 c0 3a 9e 10 bd bd
       -0.18036321 0.034152538 0.0014696479 -0.09231685
0000a0 1a e1 e8 bc 8f 82 6c 3c 88 07 d5 3d 6a 71 89 bd
       -0.02842765 0.0144354245 0.10401827 -0.06711085
0000b0 5d d7 5c 3d 76 f8 38 be ac e8 8f be 2f ee 63 bd
       0.053916324 -0.1806353 -0.28107202 -0.05564707
0000c0 d9 ea 50 3d 8a 46 27 be d2 ec af 3d 84 c0 46 3d
       0.05100522 -0.16335502 0.08590092 0.04852344
0000d0 37 d4 9b 3d f0 dd d2 3d b5 74 30 bd 94 5e ab 3d
       0.07608836 0.102962375 -0.04308005 0.08367649
0000e0 8b 5f 04 be c2 0c fd 3d 5f 18 5c be 95 16 18 3e
       -0.12927072 0.12355949 -0.21493672 0.14852364
0000f0 0a c7 d3 bd cf 1f 74 3d 8d 6f 4c be dd 61 c9 bd
       -0.10340698 0.059600648 -0.19964428 -0.09833119
000100 49 da f5 3d 75 62 c7 bd 4a c1 a9 3d f3 27 8d bd
       0.12004525 -0.09735576 0.0828882 -0.06892385
000110 b7 0a 5f 3e ae d1 3c 3e ee e9 37 be 6e 5e ab bc
       0.21781431 0.18439361 -0.17960331 -0.020919051
000120 70 c5 dd ba c9 a7 ff bd 32 5a 5d 3d 86 7f 1c be
       -0.0016919803 -0.12483174 0.054041095 -0.15283021
000130 ba bc 1a be c5 54 0a be 51 06 c2 bd ab ca 25 be
       -0.15111056 -0.135089 -0.09473861 -0.16190593
000140 4f 14 8d bc a6 ba 69 be 59 83 01 3e ac ae 96 bd
       -0.017221598 -0.22825107 0.12647761 -0.07357535
000150 94 50 6b bd f9 a1 ef 3d a9 22 e1 bd 7e 1d 41 be
       -0.057449892 0.11700816 -0.10992939 -0.18858907
000160 9f 2a 1c 3c bd 1c 86 bd 8b cc a0 3d 3e c4 9c bb
       0.009531646 -0.0654845 0.078515135 -0.004784136
000170 53 2b 85 bc 85 0a a3 3d e6 d2 21 3e d9 1a 04 3c
       -0.01625601 0.07960991 0.15803108 0.008063042
000180 f8 77 37 3e 8b df ce bd 5d 95 09 3e d8 97 bb 3c
       0.17916858 -0.10101231 0.13435884 0.022899553
000190 68 50 59 3d 8d 68 2a be 8b 95 1b be e4 44 47 be
       0.053055197 -0.16641445 -0.15193765 -0.19459873
0001a0 18 2c 81 bc ee 4b ef 3c e5 8a d8 bd 03 aa 0e 3e
       -0.015768096 0.02921101 -0.10573367 0.13932042
0001b0 e5 69 8f 3b 16 c5 fe 3d bc 41 f2 3c 7a a1 3e 3d
       0.0043766373 0.12439935 0.02957236 0.046540715
0001c0 c3 5d b8 3d 5f e7 44 be fe e1 4a 3e 5d 11 0b be
       0.09002259 -0.19228886 0.19812772 -0.13580842
0001d0 5c 71 90 3d 9f 5a 08 be 51 01 aa bd 39 87 c2 3d
       0.070528716 -0.13315819 -0.08301032 0.09498448
0001e0 15 b6 c8 bc 43 62 04 bd b7 8d ac 3d a9 b2 e0 3d
       -0.024500886 -0.032320272 0.084254675 0.10971577
0001f0 dd 88 34 be 63 30 65 bc 27 42 25 3d 6e d5 43 3e
       -0.17630334 -0.013988587 0.04034629 0.19124386
000200 df 1c 10 3d c2 90 32 bc 1f 0d 7a bd 7e 6f 11 3b
       0.035183784 -0.010898771 -0.06104767 0.0022191699
000210 b1 43 55 3a 05 69 cf bb 94 c6 64 bd ef 1f a2 bd
       0.0008135392 -0.006329658 -0.05585344 -0.07916247
000220 f8 27 d6 bd 1a d6 12 bd 54 56 bf bc 27 e9 65 3d
       -0.10456842 -0.035848714 -0.023356594 0.056130555
000230 91 57 e7 3c 57 7e db bd d5 35 39 bd fa c4 5a bd
       0.028239997 -0.10717457 -0.045217354 -0.053410508
000240 28 ec 1c 3e 82 bb 23 3e 3b a3 ca bd e1 63 d2 bd
       0.15324461 0.15989497 -0.09894415 -0.10272957
000250 e0 d9 0b be f2 1d c7 bc 57 db c8 bd e0 e2 92 3d
       -0.13657331 -0.024306271 -0.09807461 0.07172179
000260 01 24 96 bd 57 11 d2 bd 34 04 95 bd f4 1b e0 bc
       -0.07331086 -0.102572136 -0.07276192 -0.02735708
000270 18 01 d6 3d 9d fe aa 3d 4e 05 bf bc a6 da d5 3d
       0.10449427 0.08349345 -0.02331796 0.104420945
000280 9d c8 f0 bd d8 79 a3 3d 63 14 b1 bd 33 d6 d5 bd
       -0.11757014 0.07982224 -0.086464666 -0.10441246
000290 19 39 6d bd e3 7b 93 3d c2 fb 48 3e cf 8f 49 3d
       -0.05791578 0.07201364 0.19627288 0.049209412
0002a0 b8 93 e6 bc e1 d8 dc bd e8 1b aa bd ee 51 c9 bd
       -0.02814661 -0.10783554 -0.08306104 -0.0983008
0002b0 ab 9f 62 be f5 a1 dd 3d 23 0b 35 bd dc d6 78 be
       -0.22131221 0.108219065 -0.044200074 -0.24300712
0002c0 99 42 b5 bc de 5f 1a 3e e4 de f8 bd 61 0d fd bd
       -0.022126483 0.15075633 -0.12151888 -0.123560674
0002d0 a3 b7 48 bd b8 38 3c 3a 73 8b 8a 3d ab 57 66 be
       -0.049003255 0.00071800826 0.06764879 -0.2249438
0002e0 22 d2 2c be be 7d a2 bd 62 7e f2 3d 20 64 0c 3e
       -0.16877034 -0.0793414 0.11840512 0.1371007
0002f0 87 89 52 3d 70 80 49 bd 77 74 3d be 05 a7 1b 3d
       0.051400688 -0.049194753 -0.18501459 0.03800108
000300 9c 8c 2f bb 68 84 bc 3a 74 c6 c7 bd df 58 2e bc
       -0.002678669 0.0014382722 -0.09754649 -0.010641306
000310 11 2c 95 3d 94 fe 4b 3e 4f 60 f0 3d 91 cf 53 3d
       0.072837956 0.19921333 0.117371194 0.051711623
000320 c5 c6 4b 3c 8d 4a 20 be 2c 7c ce bd 92 33 1e 3e
       0.012437527 -0.15653439 -0.10082278 0.1544936
000330 22 56 2f bd 7c 2e b3 bd 78 cf d6 3d 63 49 c1 3d
       -0.042806752 -0.087491006 0.1048879 0.094378255
000340 17 27 b0 3d 46 da 08 3e 72 f8 ff 3c 7f 8b e8 bd
       0.08601206 0.13364515 0.031246398 -0.11354732
000350 93 2d c9 bd e6 a5 e8 3d 9d 46 b2 3d 6e a7 91 bd
       -0.09823146 0.113597676 0.08704875 -0.07112013
000360 05 96 26 3e 86 b5 44 be 5f 54 3e 3d 6f 74 c8 3d
       0.16268165 -0.1920987 0.04646718 0.09787833
000370 7b be a1 3d 1d 06 4a 3d 61 02 e1 bd 32 2b fe 3b
       0.078976594 0.049322236 -0.10986782 0.007756614
000380 0a f3 13 3d 2b ad 33 3d 58 60 48 3e d1 cf 5e bd
       0.036120452 0.043866318 0.19568002 -0.054397408
000390 bc e1 db 3d 7d 38 1f be 03 ab 77 bb 22 b8 fe 3c
       0.10736415 -0.15548892 -0.003779114 0.03109366
0003a0 bb 2c 67 3d 07 da ed 3d d3 50 b7 bd d2 45 b8 bd
       0.056439143 0.11613851 -0.08950963 -0.08997692
0003b0 58 29 49 3d cd 8d 59 3d ad 5a 08 be d8 2f 9e 3c
       0.049111694 0.053113747 -0.1331584 0.019309923
0003c0 1e d0 20 3c f7 e8 38 3d 89 ea f7 3c d8 f4 78 be
       0.009815244 0.045144048 0.030263202 -0.2431215
0003d0 46 40 e7 bd 0c bb cd bd 65 ba 5d 3d a3 d2 3e bd
       -0.11291556 -0.10045442 0.054132838 -0.046587598
0003e0 b3 4a 10 3e 92 07 9b bc 24 17 a3 bc 4b 48 3b 3e
       0.14090995 -0.018924508 -0.019908495 0.18289296
0003f0 94 f7 77 bd 19 a9 6c be 2e 52 57 3b 7e ff 9d bd
       -0.060538843 -0.2311138 0.003285538 -0.07714747

fc2.weight f4 [200, 300]
000000 66 a1 b1 bc 18 e4 d5 3b 43 f5 5b 3d d2 7f e0 bd
       -0.021683406 0.006527435 0.053700697 -0.1096188
000010 c0 d5 bb bd 07 15 07 3e 0d d2 de bc 59 ce 2b be
       -0.09171629 0.13191615 -0.02719977 -0.16777934
000020 42 5e 29 3d 4c 50 82 3d 13 87 7a be 0c 64 91 bb
       0.041349657 0.06362972 -0.24465589 -0.0044369753
000030 0f 96 95 3d af f6 84 3d f0 3e d2 bc 61 46 8b bd
       0.07304012 0.06492364 -0.025664777 -0.06800533
000040 69 a5 bf 3c e7 17 13 be 0e 63 24 be fd 7e 37 3e
       0.023394303 -0.14364587 -0.16053411 0.17919536
000050 8c d4 fc 3c f9 d6 15 3d 0a 8b b9 3c f1 78 c7 bd
       0.030863069 0.036581967 0.022649307 -0.097398646
000060 d9 bd d8 bc 68 3a e7 bc fd f6 1d be a3 76 c6 3c
       -0.026457714 -0.028226092 -0.1542625 0.024226492
000070 87 b8 1f bd ff f1 91 bd 6a 79 b6 3c de 15 3c bd
       -0.03899434 -0.07126235 0.022274692 -0.04591929
000080 f1 4a 44 3d 93 38 8d 3d 20 8f 14 3e 8b fe 26 be
       0.047923032 0.06895556 0.14507723 -0.16308038
000090 f1 aa 99 3d 00 70 31 bd f6 86 57 3d 36 ac 73 bc
       0.075033076 -0.043319702 0.052618943 -0.014872601
0000a0 21 60 b9 bd d4 fc b9 bc 78 b6 be bd f4 5e 48 bc
       -0.09051538 -0.022703566 -0.09312147 -0.01222967
0000b0 be 19 54 3d 37 2f 3b bc 46 5f 99 3e 27 b5 91 be
       0.051782362 -0.011424831 0.299555 -0.2845852
0000c0 8f 13 5c 3d bc 9c f7 bc 99 9f 55 3d ca 4a 1e 3e
       0.05372959 -0.030226104 0.052154157 0.15458217
0000d0 cf fe e9 3d 5f 32 26 bd 3f 48 ae 3d 2c c5 f2 3d
       0.11425554 -0.04057538 0.085098736 0.11854014
0000e0 f4 a5 22 bc 77 ae 4b be 41 3c 14 bc cb d6 07 3d
       -0.009927262 -0.19890772 -0.009047569 0.033163827
0000f0 fb 00 a1 bd 8f 52 0f 3d c0 db 59 be 28 b1 81 3d
       -0.07861515 0.034990843 -0.21275234 0.06332618
000100 61 1f 5b be 4e 0e 12 bd c0 f4 40 3d c2 36 c3 3c
       -0.21398689 -0.035658173 0.04710841 0.023829821
000110 a3 59 4a 3d 46 f6 a0 3c 4a b1 a1 bd de 87 bf 3d
       0.04940189 0.019648682 -0.07895143 0.093520865
000120 98 90 db 3d 18 2a b1 bb d4 ed 55 be 74 32 6c be
       0.107209384 -0.0054066293 -0.20891505 -0.23066121
000130 73 a0 02 3d 5b 1d 5c be d6 25 72 be 3a 46 3f be
       0.031891298 -0.21495573 -0.23647246 -0.18679133
000140 24 22 78 3d ce 8c e2 3d c7 f2 cf bd 80 11 f0 3c
       0.060579434 0.110620126 -0.10153728 0.02930522
000150 28 17 06 be ab 43 29 3a 2d 69 0a bc d8 f8 87 be
       -0.13094771 0.00064569217 -0.008447927 -0.2655704
000160 dc ad a9 bc 52 af 9b 3d f0 91 8b be 4c 89 b9 3d
       -0.020712785 0.07601799 -0.2725978 0.090593904
000170 e2 46 cf 3d 1d c0 92 3d d1 c6 62 bd 4c 69 c8 3d
       0.10120942 0.07165549 -0.055365387 0.09785709
000180 c1 b7 26 bd f5 48 0d be f1 23 ab bd 7d 8f 22 3d
       -0.040702585 -0.13797362 -0.08356465 0.039687622
000190 32 40 5c be 6d 4e 78 bc bb c6 24 3d 71 95 db 3d
       -0.21508864 -0.015155417 0.040228587 0.10721863
0001a0 28 d1 a0 3d 00 aa 52 3d cd 27 65 3c 52 a6 59 be
       0.078523934 0.051431656 0.01398654 -0.21254852
0001b0 d6 59 8c 3c 1d f0 e3 bd d3 87 5e 3d 64 43 0f bd
       0.01713268 -0.11129782 0.05432875 -0.034976378
0001c0 82 96 fb 3b 7e a1 91 3d f9 e7 ef bd 4b 3c 63 be
       0.007677854 0.0711088 -0.11714167 -0.22190969
0001d0 50 ae 40 3c 8b 2c 3f bd 96 63 cf 3d 1f 3d 22 3d
       0.011760309 -0.04667334 0.101264164 0.03960907
0001e0 88 4f 9a be 6e 20 95 3d 2a 02 4e 3d e7 12 d5 3c
       -0.30138803 0.07281576 0.050295033 0.02600999
0001f0 02 ab cf 3c 03 f6 84 3d 58 71 ca 3d c8 06 3d bd
       0.025350098 0.064922355 0.098849 -0.046149045
000200 77 fb af 3d aa 11 6e 3d d4 16 91 bd 6a 08 06 be
       0.08592885 0.058122315 -0.07084432 -0.13089147
000210 c2 46 08 3d 23 23 70 3d cf 4d 68 3d 4e e5 3c be
       0.033270605 0.05862726 0.05671483 -0.18446848
000220 62 da 12 3c 61 bb 35 bd 86 98 89 bd bf 2c c0 bd
       0.008963199 -0.04436815 -0.06718545 -0.09383535
000230 00 c0 06 3c af ad 59 bd df 50 9e 3c 2d 13 d8 ba
       0.008224487 -0.053144153 0.019325672 -0.0016485207
000240 88 5c c0 3d 2e 14 b2 3d 06 d9 7b bd 8a 05 69 3a
       0.09392649 0.08695255 -0.061486267 0.000888907
000250 b5 5e 52 bd 41 fe bb 3d a2 ee 2a 3e 07 84 08 bd
       -0.05135985 0.091793545 0.16692594 -0.033329036
000260 91 6e a3 bc cb 88 12 bd 69 a5 ef 3d ab ec 1a be
       -0.019950183 -0.035774987 0.11701471 -0.15129344
000270 62 f6 2c 3d 16 13 c7 bc 62 c8 cb 3c c7 78 85 3d
       0.042227156 -0.024301093 0.024875823 0.06517177
000280 82 ac 42 be f0 e1 28 bd d9 1b 0a 3d f1 54 1c 3e
       -0.19011119 -0.041231096 0.033717964 0.15266778
000290 3a b9 6b 3d 62 21 bc 3d 56 c4 2a 3e 4c e0 e6 bb
       0.057549693 0.09186055 0.16676459 -0.0070457812
0002a0 4a f3 80 3b 19 50 b7 3d e2 a5 33 3d b5 1b b1 bb
       0.0039352523 0.08950824 0.04385937 -0.0054049143
0002b0 79 a8 44 3e f2 b4 e1 3c 81 54 9e bd f2 8b 0b 3e
       0.19204892 0.027552102 -0.077309616 0.13627604
0002c0 3c 17 66 3c 9d 21 5e 3d 4f 88 ee bb 01 31 2d 3d
       0.014043625 0.054231275 -0.007279433 0.042283062
0002d0 e1 90 61 3d de 8a 0d be f5 2c e5 bd 9e 7c a3 be
       0.055069808 -0.13822505 -0.111902155 -0.31931013
0002e0 f1 49 8e 3d af a6 3c bd 7c 19 9e 3d c8 e3 a3 be
       0.06947697 -0.0460574 0.077197045 -0.3200972
0002f0 87 64 62 be 19 e4 0e 3d 74 de ba 3d 74 a2 d1 bd
       -0.2210866 0.0348855 0.09124461 -0.102360636
000300 26 12 4f bb ee 45 ba bc b5 63 ed 3d ad 6b 53 3d
       -0.003159651 -0.022738423 0.11591283 0.05161636
000310 ea 38 e2 bd 31 73 f5 3c 7b 9d 98 be 3f 19 a1 bc
       -0.11046012 0.029962154 -0.29807648 -0.019665359
000320 5d 8a 11 bd 88 92 ac 3d 7d 3c f0 bd ab b5 c7 3c
       -0.035532344 0.08426386 -0.11730287 0.024378618
000330 78 49 0d 3e 87 e3 23 bc 19 f3 96 bb a1 5d 34 3e
       0.13797557 -0.010002977 -0.004606616 0.17613842
000340 a7 db 03 3d a4 e5 42 3d 53 1a 88 3d 00 85 dc bd
       0.0321919 0.047582284 0.06645646 -0.10767555
000350 a4 ea 76 3d 68 27 d2 ba 2d e3 86 bd 4d 5d 85 bd
       0.060282364 -0.0016033472 -0.06586299 -0.06511936
000360 b2 9a 9f 3d 7c 0a ff bd ea 7e 5e 39 ae 09 04 3c
       0.07793178 -0.124531716 0.00021218849 0.008058948
000370 21 7b a0 bd 9c b6 2e bd 53 75 f0 3b 9c e8 30 bc
       -0.07835985 -0.04265462 0.007338205 -0.010797646
000380 2d 3c 95 3d 89 01 7b 3d 45 21 85 bd 76 35 fd 3c
       0.07286868 0.06128076 -0.06500486 0.030909281
000390 df 24 ae be 97 f1 1b 3e 20 4c be 39 20 89 91 3d
       -0.34012505 0.15228878 0.00036296342 0.07106233
0003a0 c8 3a 61 3c f5 bc 4d bd 5a 94 f7 bd 2d 8e f6 bd
       0.013746925 -0.05022903 -0.12088843 -0.12038837
0003b0 f7 cb 08 be 3f a9 8c 3d 02 0c e5 3d f0 92 43 bd
       -0.13359056 0.06868219 0.11183931 -0.047747552
0003c0 4e d7 0f 3d cf 5f 9d 3d 06 1e 60 bd 96 87 01 3e
       0.03511744 0.0768429 -0.054716133 0.12649378
0003d0 c1 03 bd bd 66 82 6b 3d 1a d7 be 3d f7 f4 24 3d
       -0.092292316 0.057497405 0.09318371 0.04027268
0003e0 a9 49 63 3d 19 17 4e 3e 89 69 27 3d 15 db 03 3d
       0.05549017 0.20125999 0.04087213 0.032191355
0003f0 43 92 d4 3d 38 8e 63 3d 08 32 20 bd cf 64 32 3d
       0.1037946 0.055555552 -0.039110214 0.04355317

fc2.bias f4 [200]
000000 07 9b 94 3d 69 bd fd 3c 66 dd 69 bc 87 e5 29 3d
       0.072561316 0.030974107 -0.014273977 0.04147866
000010 9b ca 3f bd a6 05 94 3c 9e de 28 3d 25 cd 1b bd
       -0.04682408 0.0180691 0.04122793 -0.038037438
000020 32 c6 11 bd 11 8b c8 bd 64 2d 80 bd 7a 3b b1 3c
       -0.035589404 -0.0979215 -0.062586576 0.021634806
000030 c2 ee 87 bd 98 22 c5 3b 02 59 a1 bd 26 78 00 3d
       -0.06637336 0.006016087 -0.07878305 0.031364582
000040 55 ff 84 3d 21 f2 45 ba 16 aa 0d bd 37 ec a6 bc
       0.06494013 -0.00075510336 -0.034586035 -0.020376308
000050 56 21 4e 3d b7 fb 07 bd 4f fc 4a 3c 8d 60 0e bc
       0.05032476 -0.03319904 0.012389257 -0.008690012
000060 2d 36 ff 3c 13 d2 2b bc 5b 6c 48 3c ea 3c 48 bd
       0.031153763 -0.010487097 0.012232865 -0.048886217
000070 de 8b 0b bc d7 aa 88 bc 8e 84 01 bd 42 ab 10 bd
       -0.008517234 -0.016683025 -0.031620555 -0.035319574
000080 f8 1f 50 bd 8e d5 ce 3c b1 f8 71 3d e2 38 00 be
       -0.050811738 0.025248315 0.05907506 -0.12521699
000090 58 8a 6b 3d 1d 12 7e bc 59 3e d8 bc 83 84 7c 3d
       0.05750498 -0.015507248 -0.026396917 0.06164981
0000a0 4c 8f 32 bd 0d a1 bd 3c b4 f6 42 bc 8c 9d b1 b7
       -0.04359369 0.023148084 -0.011899639 -2.1173408e-05
0000b0 0e 4e 12 3d 50 0b 0e 3d 76 37 d5 bc 96 f5 0b 3c
       0.03571897 0.034678757 -0.026027422 0.008542439
0000c0 53 c7 b4 3b 5b 94 79 3d 1f 67 41 bd f4 f3 47 bd
       0.0055169254 0.0609325 -0.047217485 -0.048816636
0000d0 0b bc 33 3d 0d c1 9b bc ed cc 87 bc 0f db da bc
       0.043880504 -0.019012952 -0.016577208 -0.026715783
0000e0 76 da 9b 3d 64 a6 11 bb 09 a0 49 bc 05 fb 44 3d
       0.076100275 -0.002222442 -0.012306222 0.048090953
0000f0 54 bd b4 bc d0 9e 54 bc 84 a5 a3 bd 40 bc 65 3d
       -0.022062935 -0.012977317 -0.07990554 0.056087732
000100 d7 23 73 bc f8 fe a6 3c 47 3f b1 bd e7 a1 0c 3c
       -0.014840088 0.02038525 -0.08654647 0.008583522
000110 c0 e5 85 bd 35 27 36 bd 6b c3 18 bb 5b 7c 75 bd
       -0.06537962 -0.044470984 -0.0023309838 -0.059933048
000120 88 db ae bc bd 4a 47 bd c2 20 2d bc 3e 9d ae bb
       -0.021344915 -0.04865526 -0.010566892 -0.0053288033
000130 e2 ed 47 3d 74 1f f1 bc 83 a9 78 bd 8c 8c 59 bd
       0.048810847 -0.029433943 -0.060708534 -0.05311255
000140 be c2 80 3d 38 9e 4c bd 78 c5 b2 bc bd 7a f9 bc
       0.06287144 -0.049955577 -0.021822676 -0.030454034
000150 31 70 3a bc a3 d6 c3 bd f3 da f2 bc c2 8f 94 bb
       -0.011379288 -0.09562423 -0.029645419 -0.004533739
000160 d7 1a 04 bc 29 f1 90 3c 2b 75 65 bd 7c 2c 4b bd
       -0.00806304 0.01769312 -0.056019943 -0.04960297
000170 72 b9 81 3d 17 d2 0e 3d af 50 8f bd 63 bd 32 bc
       0.06334199 0.034868326 -0.06997811 -0.010909411
000180 74 1b 5c bd de 25 b4 bd af 07 9c 3c 3f 55 cf bd
       -0.05373712 -0.08796285 0.019046633 -0.10123681
000190 53 d4 80 bc ec a0 13 bd 6d 4d 0b bd 82 b6 31 bd
       -0.015726244 -0.03604214 -0.034009386 -0.043386944
0001a0 7b 1b 56 bd 0a 74 38 3c a6 7e 25 3d 82 7b 00 bd
       -0.0522723 0.011258135 0.040403984 -0.031367786
0001b0 31 dc 33 bc 5e 5c 50 bd 7a 72 7b 3b d4 b2 69 bb
       -0.010977791 -0.05086934 0.0038367794 -0.0035659568
0001c0 44 61 3b 3d 7e d0 7d bd e2 16 5b bc 2e fa a7 3d
       0.045747057 -0.06196641 -0.013372155 0.08202015
0001d0 1b 53 0c 3d 2e a0 1c bc 39 7f a5 3c f8 73 8b 3c
       0.034258943 -0.009559674 0.020202266 0.017023072
0001e0 90 1c aa bc 52 30 b6 bc 9c 9a a0 bc 2c d5 72 bd
       -0.020765573 -0.022239838 -0.019604973 -0.059285328
0001f0 2c 19 27 bd d2 5e 9b bb fc 9c 55 3d bc aa 54 3d
       -0.04079549 -0.004741528 0.052151665 0.051920637
000200 51 6f 5c 3c a4 69 13 3d da 7c 82 3c 81 70 04 3c
       0.013454274 0.03598942 0.015928674 0.008083464
000210 07 51 aa bc cd e6 66 bd 84 17 25 bc 8c 11 ab bc
       -0.02079059 -0.056372453 -0.010076407 -0.02088239
000220 0c 61 86 3c 49 4c 9a bd 7e 30 5e bd 99 09 f4 bc
       0.016403697 -0.075340815 -0.054245465 -0.029789733
000230 b9 34 a5 bd ce 13 ca bc cc ba 9f bc c6 59 25 3d
       -0.08066697 -0.024667647 -0.019498251 0.040368818
000240 9c 5f 34 bd ef f1 2d 3d 50 d3 93 3a 94 dc 17 bc
       -0.044036493 0.042467054 0.0011278186 -0.0092688985
000250 3c 04 70 bd 14 c7 81 bd bc d8 fb bc 43 56 cd 3c
       -0.05859779 -0.06336799 -0.030742995 0.025065547
000260 e8 2c 37 bc 5e 7b c9 bc 70 99 2b bd 88 02 31 3c
       -0.01118014 -0.024594959 -0.041894376 0.010803826
000270 80 86 04 bb 57 d5 e3 3c 03 28 16 bd e3 c1 a8 bd
       -0.002022177 0.02781169 -0.036659252 -0.08240106
000280 bc 53 47 3d 55 24 26 3d 84 0c 52 bd 87 d1 1d bd
       0.04866384 0.040561993 -0.051281467 -0.0385299
000290 41 d2 0f 3d 2b e5 7b 3c 50 bb 19 39 41 29 ad ba
       0.035112623 0.015374462 0.00014660996 -0.0013211147
0002a0 b2 77 26 bd 86 21 f3 3c ce 66 3c 3b 62 d6 07 3d
       -0.040641494 0.029679071 0.00287478 0.033163436
0002b0 c6 b0 24 bd 1f 3b a8 bc d8 13 7d bc 49 16 33 bb
       -0.040207647 -0.020536004 -0.015446626 -0.0027326515
0002c0 d3 46 85 bb a2 96 9a bd 8a f0 d9 3c 1a 31 aa bd
       -0.004067281 -0.07548262 0.026603956 -0.08310147
0002d0 3f 33 d9 3c cd da 3a 3c f0 ec 8b 3d 1d bd 2c bb
       0.026513694 0.011404705 0.068323016 -0.0026357837
0002e0 e1 8f 17 bd 5a 45 b9 bd 62 a5 08 3d df 29 4d 3c
       -0.037002448 -0.09046431 0.033360846 0.01252219
0002f0 59 37 77 3c fb 68 3d bd 73 84 c5 ba 6d 45 95 bd
       0.0150888795 -0.046242695 -0.001506938 -0.072886325
000300 de 4f 40 3d 35 0c d8 3c 62 29 95 bc 40 2e dc bc
       0.046951167 0.026373008 -0.01820821 -0.026877522
000310 68 0f 46 bd 06 79 15 3d 79 fd 16 bd 8d 8a ba bd
       -0.048354536 0.03649237 -0.036862824 -0.09108458

fc3.weight f4 [4, 200]
000000 48 f8 77 3e 62 8f ac 3e 11 e0 e1 bd 68 18 8e 3d
       0.24215806 0.33703142 -0.110290654 0.06938249
000010 3e aa 16 be 12 53 4a be 35 29 91 3e b8 0a 07 3e
       -0.1471338 -0.19758251 0.2835175 0.13187683
000020 f1 e4 8c 3e c2 5a fb be a9 fb e4 bd b9 d3 63 3e
       0.27518418 -0.4909268 -0.11180813 0.22248735
000030 09 7d 6a bc 11 2c d5 3e 42 ca 49 be fc db e1 3d
       -0.014312037 0.41635182 -0.19706061 0.11028287
000040 94 45 4d bd d3 a3 d7 3d 9a 99 1c be 20 82 b2 bd
       -0.050115183 0.10529294 -0.1529297 -0.087162256
000050 e7 b2 97 3c e0 6e 95 3c 0a 0e b2 3d 4f a9 67 3c
       0.018517924 0.018241346 0.08694084 0.014139487
000060 87 63 46 3f 69 ba 66 bd 7a 3c 3e be 29 69 93 be
       0.77495617 -0.05633012 -0.18577757 -0.28791168
000070 1f 90 83 be 72 d4 16 3f 00 c0 00 be 00 9c 78 be
       -0.25695893 0.58917916 -0.12573242 -0.2427826
000080 37 f4 e7 bd 1c 7c a3 be a0 b8 d3 bd 7e 70 f8 be
       -0.11325877 -0.31930625 -0.10337949 -0.48523325
000090 bf 51 07 be 2d 28 02 3e 2b 61 d5 bd f0 3d 75 3e
       -0.13214777 0.12710638 -0.10418924 0.23949409
0000a0 97 1c 36 be 18 d2 64 bd d2 f4 da bd a8 83 d4 bb
       -0.17784344 -0.055864424 -0.10691227 -0.006485421
0000b0 a3 ee f9 3e 96 6e df bd 50 a6 a9 bb 89 9b 0f be
       0.48814878 -0.109097645 -0.0051772967 -0.14024176
0000c0 38 a7 7e 3d 52 40 df 3c ed 3b 6d 3d d8 4b d0 be
       0.06217119 0.02725235 0.057918478 -0.40682864
0000d0 2f b3 1a be 58 51 46 3e 2c f2 af bc d2 b1 5a 3f
       -0.15107416 0.19366968 -0.021477781 0.8542758
0000e0 ca c0 94 3d d8 30 a6 3c 7a c8 25 bd 60 31 c9 3d
       0.07263334 0.020286962 -0.040474392 0.09823871
0000f0 24 cf b6 3e 2a f5 cb ba f8 47 8d 3e 27 cc 5d 3d
       0.3570491 -0.0015560735 0.2759397 0.054149773
000100 22 68 3f bc 76 c1 44 3d c2 dd 40 be 5e 74 aa be
       -0.011682542 0.04803606 -0.18834594 -0.33291906
000110 3d 11 07 3d 9d d6 ce bd 81 99 10 be 6a 66 ce bd
       0.032975424 -0.10099528 -0.14121057 -0.10078128
000120 d8 1f ee 3d c2 70 3f 3e 74 7e 58 be 4a 25 9b 3e
       0.116271675 0.18695357 -0.21141988 0.30301887
000130 f8 17 d2 3e 03 f7 88 bd 3d 56 8b bc 30 94 3e be
       0.41033912 -0.06687739 -0.017008895 -0.18611217
000140 b8 2f 8e bd c6 c7 a3 3d d6 91 a8 bc 45 0f 95 3d
       -0.069426954 0.07997088 -0.020577352 0.07278303
000150 be bf 06 bd 5f 82 09 be 01 98 70 3c 52 37 e6 3d
       -0.032897703 -0.13428639 0.014684678 0.1124102
000160 56 a8 5e 3d e9 41 20 be 43 14 8b 3e 68 f1 1e bd
       0.054359756 -0.15650143 0.27163896 -0.03880444
000170 0d b2 84 3e 36 d5 8d 3e c8 92 6f bd e3 40 a2 3d
       0.25917092 0.2770173 -0.05848959 0.079225324
000180 29 3e 9e 3d dc a9 c8 be e3 18 fa bc be d7 3d be
       0.077267 -0.39192092 -0.030529445 -0.1853933
000190 b1 46 67 bd 18 eb 9e 3d 95 1e 67 3e 53 f4 81 bd
       -0.0564639 0.07759684 0.2257026 -0.06345429
0001a0 a8 86 8a 3e e1 02 f6 bd ab ca a6 3d 07 f6 75 3e
       0.2705586 -0.12012268 0.081441246 0.24019633
0001b0 1c 05 60 bc 68 34 cd 3c cc c6 64 3e b5 1e e4 bb
       -0.013673093 0.025049403 0.2234146 -0.0069616684
0001c0 bd 27 ae 3e 7c 0d af 3d c0 6a be bd d0 a9 f6 bb
       0.34014693 0.08547494 -0.09297705 -0.0075275674
0001d0 89 9a 8e 3b 4b 8b 5f be 90 20 7f bc 39 be d9 3d
       0.004351918 -0.2183048 -0.015571728 0.10631985
0001e0 17 3f a2 3e 21 cf bc bc 4d e1 44 3e 2c 91 05 be
       0.3168876 -0.023047986 0.1922657 -0.1304366
0001f0 47 91 21 3d a7 91 9f bd 3e 58 22 3c db 7e 04 3e
       0.039445188 -0.07791453 0.009908734 0.12939017
000200 39 53 38 be 8f 1d 22 be 90 37 9b 3e f0 3a 07 3c
       -0.18000497 -0.15831588 0.30315828 0.008253798
000210 40 91 5f bd 0f 3b 8e 3d 10 27 8b be 7f 4e 99 3d
       -0.05458188 0.06944858 -0.2717824 0.07485675
000220 36 af 68 3c 31 f0 a6 3d 8b 87 51 be 7a ac 9d bd
       0.01420193 0.081512816 -0.20461862 -0.07698913
000230 4b 79 de bd 87 58 d1 3d c3 11 76 bd 6c 7a 82 bd
       -0.108629785 0.102219634 -0.060075533 -0.06371006
000240 0e e3 ed be 4b 31 c2 3d eb 7f 05 3e 69 17 cd bd
       -0.4646229 0.09482058 0.13037078 -0.10014231
000250 41 34 02 3e da b6 9a 3e 6c 10 0d be f4 47 d4 3a
       0.12715246 0.3021763 -0.13775796 0.001619576
000260 d4 be c3 3e 60 09 56 bd c8 df 38 3e e0 36 d1 bd
       0.38231528 -0.052255034 0.18054116 -0.10215545
000270 07 14 75 bd 0c d2 96 3d 66 ac 04 3d a0 df 33 be
       -0.059833553 0.07364282 0.032390974 -0.17565775
000280 e3 d1 c8 3d 03 51 df 3c b2 de a9 be c8 85 b6 3c
       0.09805658 0.02726031 -0.33177716 0.022280589
000290 18 68 23 3d 78 3f 9e 3d bc 1b 8a 3e b8 05 10 3e
       0.039894193 0.077269495 0.26974285 0.14064682
0002a0 cc 19 93 be 08 0d 33 3d d6 ee 21 bd d3 59 0c be
       -0.2873062 0.0437136 -0.039534412 -0.1370614
0002b0 13 14 3e bc a7 d2 58 3d f3 ae c2 bc da 58 df ba
       -0.011601466 0.05293527 -0.023765063 -0.001704003
0002c0 0e 56 a2 bc 24 d7 7b 3e ac 4e d2 3d 25 6a 05 3d
       -0.019816425 0.24593788 0.10268912 0.03257193
0002d0 b7 e2 94 3d 8b 4f bf 3e 0f 8d bd 3e 90 8c 61 bf
       0.07269805 0.37365374 0.37021682 -0.88105106
0002e0 bd 53 83 bd a3 79 94 be 5b cb 4c 3d 14 25 7e 3e
       -0.06412456 -0.2899905 0.049998622 0.24818832
0002f0 dd 51 f5 bd cd 1f 75 be 2c 06 8c 3e 2d af c3 be
       -0.11978505 -0.23937912 0.2734846 -0.38219586
000300 70 e3 a1 3b 9d 5a fd bc bb cc 7a be 18 95 23 3e
       0.0049404427 -0.030926997 -0.24492161 0.15974844
000310 a5 a2 59 3d 78 91 2a be ac 9c ea bd dd 61 fd 3e
       0.053133626 -0.16657054 -0.11455664 0.49488726
000320 50 b3 c7 bc 09 c2 27 bd 23 25 d6 bd 15 61 67 bd
       -0.024377495 -0.04095653 -0.10456302 -0.05648907
000330 f4 f2 81 3e 82 3d 97 bc eb 71 03 be 08 18 a3 bc
       0.2538067 -0.018461946 -0.12836425 -0.01990892
000340 4d 0b cb 3e 76 72 ea bd 00 11 91 3e 8d 1a 1c be
       0.3965706 -0.11447613 0.28333282 -0.15244503
000350 c2 9a 67 bd 4b 69 e8 3c e8 ef c4 be 06 73 7c 3e
       -0.056544073 0.02837052 -0.38464284 0.24653253
000360 11 a8 a1 3e 4c 42 d8 bc 52 6d 08 bd 07 d0 51 3e
       0.31573537 -0.0263988 -0.03330738 0.20489512
000370 4a a2 52 bd 83 22 c0 bd 43 74 01 be db a8 14 3f
       -0.051424302 -0.093815826 -0.12642007 0.58070153
000380 f4 ae 2a 3e a3 31 28 3e 13 a5 26 3e 68 49 83 be
       0.16668302 0.16425185 0.16273908 -0.25641942
000390 14 74 ca 3e d7 73 cd 3e da b3 eb bc 33 b8 57 bd
       0.39541686 0.4012744 -0.028772283 -0.0526659
0003a0 57 97 03 3e c2 e3 a0 3d 1d 4c eb bd 7e d8 9f 3d
       0.128507 0.07855941 -0.11489127 0.078049645
0003b0 83 68 c2 3e 26 a5 68 3e a0 21 26 3e 1c c9 dd be
       0.3797036 0.22719249 0.16223764 -0.43317497
0003c0 c0 4a 9e be 26 d9 55 3d 7f d2 a1 bd 81 b9 79 3c
       -0.30916405 0.052209042 -0.07901477 0.0152419815
0003d0 18 bd 9b bd 4f 08 43 3e 9f 72 4a bd d7 c8 d1 bc
       -0.07604426 0.19046138 -0.049425717 -0.025608463
0003e0 92 7d 84 bd 91 2b d7 bc 57 51 ab bd dc ee 27 3e
       -0.06469263 -0.026265891 -0.08365124 0.16399711
0003f0 43 3b 1a bd d4 9b 69 3d 42 88 6a 3d d7 60 24 3e
       -0.037654173 0.057033375 0.05725885 0.16052566

fc3.bias f4 [4]
000000 95 db 02 bc 7d 59 85 bd a6 8a dd bd 60 e2 b5 3d
       -0.007986923 -0.06511209 -0.10817461 0.08881068
