critic.pth (torch_old, 286654 bytes, 5 tensors)

fcs1.weight f4 [300, 33]
-0.00949424 0.06903778 0.054139458 -0.007072692 -0.036550585 0.01807165 0.0034549632 -0.0048304177
-0.006582662 0.01903215 0.044061415 -0.018647097 0.008128063 0.017568883 -0.024342254 -0.05941986
-0.014078651 0.004441085 0.017313067 0.046965085 -0.0142996255 0.03528023 -0.031158568 0.05148442
0.0038142437 -0.044278182 0.027844526 0.03909759 0.08716739 4.193765e-39 -0.04931756 6.75517e-40
-0.3370253 -0.054102078 -0.027676268 0.011414369 0.0009588395 -0.030548032 0.024201982 -0.011497931
0.01429831 -0.033640593 0.016055796 -0.0035048786 -0.0006933414 0.00013487048 0.06616324 0.029124634
-0.040769324 -0.020954479 0.012926775 0.027328212 -0.01543533 -0.0217401 -0.015710043 -0.007606007
-0.0050519174 0.007830885 -0.022281095 -0.07583182 0.043167576 -0.018811725 3.750123e-39 -0.048862033
3.882785e-39 0.42687148 0.0011672293 0.03786311 0.03406701 -0.0049472665 0.008921165 -0.03441959
0.031203767 -0.007063286 -0.019942336 -0.013519967 0.0051083625 -0.014595222 0.020566424 -0.07333424
-0.056867916 -0.09295347 0.07576908 -0.014396401 -0.06893024 0.010434598 0.021165073 0.023982748
-0.048532706 -0.02311524 0.0037656869 -0.007373374 0.049115222 0.053062934 0.05266428 5.144702e-39
-0.06388324 -2.533632e-39 0.07837789 0.024418145 -0.040368285 0.085378274 -0.0071355994 -0.01866269
-0.022832049 -0.0049460595 0.0023243618 -0.005711786 -0.0039688884 0.0063377563 -0.0009342933 -0.0027870035
-0.005855662 -0.026001642 -0.0163414 -0.0045239376 -0.015431155 -0.030406302 -0.019748887 -0.02472686
0.045545027 -0.0080229975 -0.004458432 -0.028446406 -0.0048730336 0.053008374 -0.034135226 -0.0569943
-1.157353e-39 0.031216275 -1.527456e-39 -0.020263271 0.0041050115 -0.03457581 0.03298297 0.0125381155
0.054622643 0.01110987 -0.0068475762 0.06547594 0.0122024845 -0.015618286 0.004965247 -0.010833594
0.02519565 -0.031177318 0.044124983 0.01802156 -0.008879204 0.007849608 0.05301562 -0.02066092
-0.03868839 -0.0049631493 -0.041969046 0.017361864 0.018300941 0.0074776397 0.038863674 -0.022599177
0.0015867788 9.63573e-40 0.0019743068 -4.754917e-39 0.38543412 0.035261326 0.0140593555 -0.008953199
0.024948303 -0.043123513 0.04091045 -0.010891896 -0.0023998504 0.038383238 0.0015637252 0.012100675
-0.008746131 0.016233735 -0.07044623 -0.020772839 0.042566672 0.00107645 -0.01998856 0.019611837
-0.02453276 0.005805437 -0.0072421273 0.015412345 -0.0009028556 -0.009156294 0.023145586 0.08738004
0.031310596 -0.014882753 2.223453e-39 -0.021358095 -5.687118e-39 0.3124506 0.00076091033 0.018935062
-0.030523509 -0.025483562 -0.0056507583 -0.01014262 0.012891151 0.009378342 -0.025364308 0.0036578397
-0.01405176 -0.023902038 0.033956077 -0.044687234 -0.02049981 0.02181777 0.0018496814 0.015025015
0.00031854643 0.006398573 -0.0069691166 -0.017718518 -0.006750618 -0.01142786 0.015054754 0.017902669
-0.038808074 -0.023715423 0.08545543 3.09669e-39 0.023424914 -4.116478e-39 -0.035515662 -0.024358789
-0.007849247 0.080479525 -0.009489867 -0.026702244 -0.013639987 0.023367286 0.07645948 -0.07109009
-0.0017767939 -0.02790721 -0.08492208 0.055313982 -0.046322573 0.006849939 0.04058351 0.006232602
-0.054655783 -0.0063605597 -0.012298641 0.050793964 0.02582249 0.0065372935 0.021230984 0.031066777
00000000: bb8d 1bbc ae63 8d3d 56c1 5d3d 0ac2 e7bb
00000010: 11b6 15bd ff0a 943c aa6c 623b 7b48 9ebb
00000020: 5fb3 d7bb 50e9 9b3c be79 343d ccc1 98bc
00000030: 912b 053c 9eec 8f3c 6869 c7bc 3d62 73bd
00000040: 24aa 66bc 8586 913b 22d4 8d3c 765e 403d
00000050: fa48 6abc 0182 103d 4140 ffbc 54e1 523d
00000060: 64f8 793b 0a5d 35bd 341a e43c cb24 203d
00000070: d184 b23d 83aa 2d00 3601 4abd 115b 0700
00000080: 958e acbe 249a 5dbd 57b9 e2bc 5503 3b3c
00000090: a15a 7b3a de3f fabc 3c43 c63c d161 3cbc
000000a0: 7543 6a3c b8ca 09bd 7287 833c 1bb2 65bb
000000b0: 5bc1 35ba 056c 0d39 9880 873d c996 ee3c
000000c0: bcfd 26bd baa8 abbc d3ca 533c 6adf df3c
000000d0: 77e4 7cbc 4b18 b2bc 59b2 80bc d03b f9bb
000000e0: 8e8a a5bb 1d4d 003c d886 b6bc b74d 9bbd
000000f0: 7cd0 303d 0c1b 9abc d1d5 2800 8e23 48bd
00000100: a047 2a00 e68e da3e b7fd 983a 5916 1b3d
00000110: d989 0b3d ae1c a2bb 142a 123c 8efb 0cbd
00000120: 0b9f ff3c 2373 e7bb 1c5e a3bc da82 5dbc
00000130: 0d64 a73b cc20 6fbc eb7a a83c 4330 96bd
00000140: 55ee 68bd 645e bebd d22c 9b3d e2de 6bbc
00000150: 4c2b 8dbd e0f5 2a3c 6062 ad3c 7877 c43c
00000160: 3bca 46bd 2c5c bdbc bec9 763b 589c f1bb
00000170: 0b2d 493d 8558 593d 80b6 573d 5605 3800
00000180: 37d5 82bd bc96 1b80 9684 a03d 9008 c83c
00000190: 3759 25bd ceda ae3d bfd1 e9bb 7fe2 98bc
000001a0: 470a bbbc 8e12 a2bb 5254 183b ef29 bbbb
000001b0: 730d 82bb f4ac cf3b 5deb 74ba 29a6 36bb
000001c0: dae0 bfbb 6501 d5bc 66de 85bc 8a3d 94bb
000001d0: f5d2 7cbc a316 f9bc 6bc8 a1bc fc8f cabc
000001e0: 6c8d 3a3d e472 03bc 0a18 92bb 7008 e9bc
000001f0: f8ad 9fbb 4f1f 593d 61d1 0bbd db72 69bd
00000200: 3b9a 0c80 46b9 ff3c eda1 1080 29ff a5bc
00000210: 5583 863b 5d9f 0dbd 2719 073d ab6c 4d3c
00000220: febb 5f3d 2c06 363c a261 e0bb 4018 863d
00000230: eeec 473c d7e3 7fbc 83b3 a23b 637f 31bc
00000240: 1c67 ce3c 9367 ffbc 66bc 343d f3a1 933c
00000250: 157a 11bc a49b 003c e826 593d 1741 a9bc
00000260: b877 1ebd eaa1 a2bb bce7 2bbd 783a 8e3c
00000270: dbeb 953c fd06 f53b 842f 1f3d e921 b9bc
00000280: 76fb cf3a 0d7e 0a00 5f63 013b c6c6 3380
00000290: 9f57 c53e 2e6e 103d 3659 663c 70b0 12bc
000002a0: 6260 cc3c 48a2 30bd b791 273d ec73 32bc
000002b0: cf46 1dbb be37 1d3d e9f5 cc3a e941 463c
000002c0: ef4b 0fbc 9cfc 843c 1d46 90bd cd2b aabc
000002d0: 645a 2e3d ab17 8d3a 0cbf a3bc 01a9 a03c
000002e0: edf8 c8bc 893b be3b 5e4f edbb 0f84 7c3c
000002f0: 9dad 6cba 4804 16bc d09b bd3c 4ef4 b23d
00000300: 8a3f 003d cad6 73bc 1536 1800 2cf7 aebc
00000310: 5fed 3d80 86f9 9f3e d477 473a b41d 9b3c
00000320: 700c fabc e7c2 d0bc ff29 b9bb 3b2d 26bc
00000330: 6835 533c 9ea7 193c cfc8 cfbc 5eb8 6f3b
00000340: 5a39 66bc 35ce c3bc 8715 0b3d f609 37bd
00000350: 38ef a7bc 2ebb b23c 0271 f23a 7b2b 763c
00000360: 9402 a739 1fab d13b 305d e4bb 6d26 91bc
00000370: 4a34 ddbb eb3b 3bbc 37a8 763c 9ea8 923c
00000380: 37f5 1ebd d946 c2bc 4203 af3d 50b8 2100
00000390: 9be5 bf3c 11d3 2c80 df78 11bd 158c c7bc
000003a0: 219a 00bc 73d2 a43d 637b 1bbc aabe dabc
000003b0: 417a 5fbc c06c bf3c ca96 9c3d ae97 91bd
000003c0: 4fe3 e8ba a99d e4bc a1eb adbd ea90 623d
000003d0: bdbc 3dbd 7475 e03b e53a 263d db3a cc3b
000003e0: bede 5fbd 3e6c d0bb 3d80 49bc 550d 503d
000003f0: b089 d33c cb36 d63b 9aec ad3c c17f fe3c

fcs1.bias f4 [300]
-0.101723984 -0.0840257 -0.08472655 -0.018225333 0.045358393 -0.052169155 0.026363965 -0.04192834
0.009076419 -0.0181101 -0.0084583415 0.011957815 0.023480238 -0.0023051691 0.011790558 0.044954624
-0.053716056 -0.05932635 0.043295722 -0.089434475 -0.030576235 -0.008413793 -0.01692504 0.03793952
0.025996303 -0.007238186 -0.021324435 0.03701472 0.052049123 -0.06904983 -0.042431194 -0.089600064
0.043189384 -0.022567758 -0.08030508 -0.07437861 -0.032551475 0.06127802 -0.04420929 0.016243005
0.04604677 -0.016431713 0.012569511 -0.077031694 0.036045466 -0.07427149 -0.007849707 -0.012912961
0.00068626885 -0.048717443 0.012105557 -0.050237384 -0.016092038 0.0346863 0.020781863 -0.024024935
0.01519229 -1.8111765e-05 -0.090285756 0.029673815 -0.044877745 0.04468752 -0.103841975 -0.050151702
0.034383696 -0.082369216 -0.01622179 0.009626093 0.008687188 0.062192887 -0.09336275 0.02959615
-0.050311908 -0.07058829 -0.033114593 -0.0077702776 -0.05311956 -0.0028824299 -0.07378616 -0.029348442
-0.035510972 -0.049254958 -0.011379402 -0.014278523 0.004746955 -0.060051724 -0.0047498737 -0.084105134
0.03818551 -0.017595366 0.0351966 0.06731267 -0.028777964 -0.06876036 0.020463742 0.04432785
0.03280073 -0.0028777567 0.10220928 0.004573832 0.03384674 -0.052546155 -0.026298475 -0.008181322
0.077337466 -0.013114335 -0.057590075 0.041301016 -0.022922589 -0.014541012 -0.029646939 0.066576235
0.071350634 -0.058855068 0.059093513 -0.10684224 -0.05792848 0.014462489 -0.00046241234 -0.010001597
-0.018506179 0.014822403 0.06463 0.07054827 -0.0068226727 0.025962241 -0.039013654 0.035932306
0.009819898 -0.066954665 -0.0064185155 -0.017479768 -0.020531174 -0.013436129 0.039785713 -0.015429761
-0.0024981506 0.013612858 -0.065941 0.01044903 0.054502405 0.023012074 0.016705403 -0.036798414
0.011333703 -0.016272085 -0.0892952 -0.052890472 -0.051219255 -0.0059404997 -0.08335737 0.011603149
-0.06545071 -0.03029544 -0.048880864 -0.006619445 0.013792393 -0.00014468053 -0.09269631 -0.01807729
0.022944238 -0.030310148 -0.057883978 0.0011369003 -0.034349494 -0.00090064015 -0.004591632 -0.012528769
-0.0022448841 0.026643673 0.02532706 -0.0128802685 -0.05562247 0.014754445 -0.04150989 0.021941077
-0.056861684 0.058917977 -0.031299893 -0.03152431 -0.0068017095 -0.025234008 -0.0021018006 0.024145609
-0.060504097 -0.023974141 0.03916003 -0.013815842 -0.052414123 -0.020481793 0.027109435 0.04330724
0.042612728 0.02335163 -0.0035432684 0.045499668 0.048000153 -0.016786119 0.013902678 -0.0433058
-0.018951675 -0.032185163 -0.06481492 0.07249966 0.021152839 -0.0076589766 0.0003193792 0.051947188
-0.03289513 0.032713573 -0.06615437 0.018984118 -0.015663005 0.116039835 -0.00910534 -0.07135448
0.093552984 -0.078292936 -0.0014068605 0.093978934 0.035069466 -0.009000531 -0.019949822 0.020197107
0.026201308 -0.021098463 -0.0016023174 0.028258184 0.044113714 -0.08827534 -0.039668024 -0.0023042297
0.033533335 -0.025311582 -0.021910103 -0.057287708 -0.007120102 0.007999483 0.004889613 0.009059174
0.03415392 -0.0041216514 0.0043152967 -0.043487724 -0.048719473 -0.0012936126 0.08529649 -0.03498897
0.113307506 -0.061608274 0.0028597289 0.037631113 -0.04869766 -0.022729043 -0.01829857 -0.0661055
00000000: aa54 d0bd ab15 acbd 1d85 adbd 4b4d 95bc
00000010: b9c9 393d 53af 55bd 3ef9 d73c 0dbd 2bbd
00000020: 43b5 143c a25b 94bc db94 0abc b6ea 433c
00000030: a159 c03c 5212 17bb 2f2d 413c 5722 383d
00000040: 5e05 5cbd 3000 73bd db56 313d 6c29 b7bd
00000050: 037b fabc 01da 09bc 62a6 8abc 7866 1b3d
00000060: 33f6 d43c 4e2e edbb 95b0 aebc bf9c 173d
00000070: 7631 553d ff69 8dbd 55cc 2dbd 3d80 b7bd
00000080: 5ae7 303d 05e0 b8bc fd76 a4bd d053 98bd
00000090: b254 05bd a9fe 7a3d cd14 35bd 0d10 853c
000000a0: 8a9b 3c3d cd9b 86bc 5af0 4d3c cbc2 9dbd
000000b0: 69a4 133d a71b 98bd 0f9c 00bc e290 53bc
000000c0: b9e6 333a f18b 47bd 6356 463c b7c5 4dbd
000000d0: 73d3 83bc 3913 0e3d ba3e aa3c f1cf c4bc
000000e0: 15e9 783c b8ee 97b7 bde7 b8bd 8016 f33c
000000f0: bad1 37bd 430a 373d 1aab d4bd df6b 4dbd
00000100: ebd5 0c3d 31b1 a8bd 8fe3 84bc c3b6 1d3c
00000110: b554 0e3c f8bd 7e3d f834 bfbd a073 f23c
00000120: dc13 4ebd 9890 90bd 2ba3 07bd d09d febb
00000130: e593 59bd 26e7 3cbb 331d 97bd 256c f0bc
00000140: f473 11bd 91bf 49bd ac70 3abc 77f0 69bc
00000150: 588c 9b3b ccf8 75bd d4a4 9bbb 503f acbd
00000160: 6968 1c3d 2824 90bc 4f2a 103d 3adb 893d
00000170: c4bf ebbc 3bd2 8cbd 94a3 a73c 1f91 353d
00000180: 0f5a 063d bf98 3cbb 1953 d13d 15e0 953b
00000190: e1a2 0a3d a33a 57bd e66f d7bc f40a 06bc
000001a0: 1b63 9e3d 82dd 56bc 92e3 6bbd 412b 293d
000001b0: 27c8 bbbc 6d3d 6ebc 23de f2bc 1f59 883d
000001c0: 4820 923d 0312 71bd 0a0c 723d 1bd0 dabd
000001d0: 6a46 6dbd 13f4 6c3c ef6f f2b9 bddd 23bc
000001e0: 459a 97bc aad9 723c bc5c 843d 9d7b 903d
000001f0: ba90 dfbb c4ae d43c c8cc 1fbd c12d 133d
00000200: a3e3 203c 871f 89bd 6952 d2bb bb31 8fbc
00000210: fe30 a8bc 3623 5cbc 58f6 223d 1ccd 7cbc
00000220: 03b8 23bb 7708 5f3c 130c 87bd 6932 2b3c
00000230: ea3d 5f3d d183 bc3c c5d9 883c efb9 16bd
00000240: ffb0 393c 094d 85bc 67e0 b6bd aea3 58bd
00000250: 48cb 51bd 86a8 c2bb 45b7 aabd 221b 3e3c
00000260: 060b 86bd 252e f8bc 4d37 48bd eee7 d8bb
00000270: 7df9 613c 62b5 17b9 90d7 bdbd d316 94bc
00000280: 8ef5 bb3c fd4c f8bc c017 6dbd 0b04 953a
00000290: 0eb2 0cbd f018 6cba 6775 96bb 7745 4dbc
000002a0: e81e 13bb d543 da3c b27a cf3c c307 53bc
000002b0: 63d4 63bd a1bc 713c 4606 2abd c6bd b33c
000002c0: cce7 68bd fa53 713d 5134 00bd a31f 01bd
000002d0: e0e0 debb 8db7 cebc 5dbe 09bb 03cd c53c
000002e0: 25d3 77bd 6b65 c4bc 4566 203d d75b 62bc
000002f0: 31b0 56bd 6fc9 a7bc 9b14 de3c ef62 313d
00000300: af8a 2e3d eb4b bf3c 2e36 68bb dc5d 3a3d
00000310: cf9b 443d 0b83 89bc 0fc8 633c 6c61 31bd
00000320: 8b40 9bbc 97d4 03bd afbd 84bd b47a 943d
00000330: b848 ad3c 27f8 fabb 5a72 a739 93c6 543d
00000340: 0bbd 06bd abfe 053d f17b 87bd 9584 9b3c
00000350: b44f 80bc 4ba6 ed3d 902e 15bc 4c22 92bd
00000360: b598 bf3d 0c58 a0bd 6866 b8ba 0778 c03d
00000370: 00a5 0f3d f776 13bc cf6d a3bc 6774 a53c
00000380: 20a4 d63c afd6 acbc da04 d2ba b57d e73c
00000390: 95b0 343d b4c9 b4bd f07a 22bd 8f02 17bb
000003a0: 405a 093d 3c5a cfbc d17c b3bc 84a6 6abd
000003b0: bf4f e9bb 4310 033c 0c39 a03b ee6c 143c
000003c0: fbe4 0b3d eb0e 87bb 5567 8d3b 2f20 32bd
000003d0: 128e 47bd 708e a9ba edaf ae3d 9850 0fbd
000003e0: c40d e83d f558 7cbd 4a6a 3b3b 1523 1a3d
000003f0: 3377 47bd 4232 babc e2e6 95bc 5262 87bd

fc2.weight f4 [200, 304]
-7.00049e-38 5.747543e-39 -2.4590835e-37 -1.6664504e-37 -1.2217116e-37 -2.4957868e-37 -1.5222079e-37 -8.0827546e-38
-1.3566744e-37 -2.8021965e-37 -7.09573e-40 -6.30719e-40 -1.9583583e-38 -8.519092e-38 -9.952986e-38 2.032533e-39
-1.357802e-39 -1.020011e-39 -8.274679e-39 -1.8156882e-38 -5.3859344e-38 -1.3402456e-37 -1.0844501e-37 -4.1420553e-37
-1.910064e-38 -7.789964e-39 4.402005e-39 -1.4501215e-37 -6.1798585e-38 -9.434721e-38 -1.05647e-40 -1.7230119e-37
-7.9053726e-38 -4.627939e-37 3.612413e-39 1.824378e-39 -1.1936272e-37 1.026432e-38 -2.1419136e-37 -6.953622e-38
-3.6172513e-38 -1.0882757e-37 -1.3178015e-37 -5.654363e-39 -8.0866917e-38 -8.326246e-39 -3.1666796e-37 -2.0317482e-37
-8.637543e-38 -4.116185e-39 -3.3019769e-37 3.826733e-39 -4.90073e-40 -2.1498506e-37 4.670808e-39 3.01604e-40
1.15646e-40 -7.279844e-38 -2.808695e-39 -7.817313e-38 -5.076328e-38 3.9522e-39 4.416175e-39 4.078384e-39
4.637962e-39 -9.067e-41 -2.5228249e-37 -4.093963e-37 3.141554e-39 2.646481e-39 -1.8794811e-37 -2.008588e-39
-1.280698e-37 -2.4276453e-38 -4.7157976e-38 -2.5876803e-38 5.537528e-39 -5.683216e-38 4.275575e-39 8.745e-40
-5.39738e-38 5.27359e-40 -1.2289612e-38 -5.6441993e-38 4.35098e-40 5.95581e-39 -4.173538e-39 -4.252392e-39
-5.480548e-38 -8.7234484e-38 -1.637035e-38 -2.6883487e-37 -3.6272061e-38 2.892168e-39 4.870689e-39 -9.67815e-40
4.259633e-39 -2.94848e-38 -4.338218e-39 -6.118928e-38 1.327624e-39 -3.689832e-39 -1.834333e-39 -6.613523e-39
-5.233621e-37 2.784817e-39 -8.00825e-40 3.086601e-39 -2.6713287e-37 -3.9035624e-38 -1.4202106e-37 -3.4523425e-37
2.6708345e-38 -5.83589e-38 5.529927e-39 -6.1169144e-38 6.00814e-39 1.264263e-39 -4.843672e-39 -1.769492e-39
-2.32483e-37 -2.5219785e-38 -3.783684e-37 2.8895581e-38 5.8238e-40 -1.6068734e-37 -4.5155e-41 -3.19023e-39
4.613411e-39 -6.29887e-39 4.16587e-39 2.281852e-39 -1.8875737e-37 -1.0360909e-37 -4.448137e-37 3.052521e-39
-2.5695063e-37 -2.226607e-39 -2.367544e-39 -8.243626e-38 -1.9258576e-37 4.58312e-39 -3.716154e-39 -2.71121e-39
-2.1914064e-37 -2.7496146e-37 3.443764e-39 -1.3679207e-38 -2.6898303e-37 5.659968e-39 2.7581433e-38 -1.5286561e-37
-2.987448e-37 -2.035223e-39 -2.0909985e-37 -3.699495e-37 -2.032085e-39 -2.698878e-39 -2.984992e-37 1.820388e-39
-1.7872981e-37 2.820152e-39 -1.2340601e-37 -5.83498e-38 9.3035e-40 5.734696e-39 -5.1318644e-38 5.279936e-39
-1.5275431e-38 -1.4855548e-37 -4.6285704e-37 -2.1969062e-37 -3.5758065e-38 -2.246472e-39 -4.437558e-38 -4.80096e-40
4.547023e-39 3.327109e-39 -1.0540141e-38 -3.038844e-37 -6.420911e-38 -4.389618e-38 4.149794e-39 -5.6522694e-37
-7.7948987e-38 -1.1767856e-37 -3.5731223e-37 -1.009384e-37 6.035135e-39 1.690168e-39 -7.12308e-40 -5.25442e-37
-6.566711e-38 -2.2224071e-37 -4.09502e-39 -3.7577733e-37 -2.69501e-37 -3.0602744e-38 -4.57756e-39 3.62869e-39
-1.625289e-37 -3.2122895e-38 -1.5824157e-37 -4.9207983e-37 -4.6830556e-37 6.207461e-39 -2.9719195e-37 -1.2246575e-37
6.371155e-39 -2.3885253e-37 5.74622e-39 -1.9349952e-37 -9.1658394e-38 -4.905742e-38 -7.36612e-40 3.4909e-41
-1.6773274e-38 4.927862e-39 -1.60598e-38 -3.524994e-39 -2.0331834e-37 -1.3264976e-37 1.2143473e-38 -6.538308e-37
-4.2433654e-37 5.319643e-39 -5.6528627e-38 1.5296193e-38 -2.6705206e-38 -1.0183413e-37 -1.2925019e-37 -4.4926907e-38
-2.3511573e-37 -4.311425e-39 -3.2527548e-37 -8.0868464e-38 -3.550628e-38 -2.5288224e-37 -1.0761851e-37 3.720481e-39
-1.5077292e-37 -2.758854e-38 2.267951e-39 2.133382e-39 2.727577e-39 -2.3480023e-38 -3.1291793e-37 -2.773091e-39
4.92853e-40 -7.075703e-38 -4.006649e-37 -2.0105503e-37 3.849244e-39 -2.945283e-39 4.82013e-39 -1.1688466e-37
00000000: 4c92 be81 d095 3e00 475b a782 52d3 6282
00000010: 704a 2682 bdda a982 3431 4f82 9408 dc81
00000020: 34a9 3882 26b5 be82 00ba 0780 30de 0680
00000030: 103f d580 68e9 e781 1879 0782 e021 1600
00000040: 00c9 0e80 601b 0b80 701a 5a80 00b6 c580
00000050: 7c9e 9281 be6c 3682 929b 1382 64f2 0c83
00000060: d0fc cf80 40d3 5480 00ef 2f00 5c61 4582
00000070: 543b a881 346b 0082 8026 0180 3486 6a82
00000080: 6834 d781 097b 1d83 f055 2700 a0dd 1300
00000090: d677 2282 c0c4 6f00 66c5 9182 ac4b bd81
000000a0: 20f1 4481 e020 1482 ae5e 3382 1092 3d80
000000b0: 0424 dc81 30aa 5a80 5783 d782 0c46 8a82
000000c0: e422 eb81 40d2 2c80 8db8 e082 60ab 2900
000000d0: 2056 0580 ae4f 9282 50dc 3200 c048 0300
000000e0: 6042 0100 1c2d c681 8095 1e80 b8ce d481
000000f0: d830 8a81 2009 2b00 8016 3000 e068 2c00
00000100: c080 3200 c0fc 0080 cfb1 ab82 734f 0b83
00000110: 6035 2200 50d1 1c00 5cd2 7f82 20df 1580
00000120: d051 2e82 702c 0481 5060 8081 00e3 0c81
00000130: 604c 3c00 3cb6 9a81 908e 2e00 c085 0900
00000140: 40ee 9281 10be 0500 70d2 8580 54a6 9981
00000150: e0bc 0400 60da 4000 2072 2d80 f04d 2e80
00000160: d831 9581 9079 ed81 e041 b280 a4f5 b682
00000170: e07b 4581 307e 1f00 8009 3500 e089 0a80
00000180: 2062 2e00 d087 2081 303d 2f80 b492 a681
00000190: e074 0e00 c02d 2880 60f9 1380 d003 4880
000001a0: 4517 3283 f052 1e00 60b8 0880 309c 2100
000001b0: 1ccd b582 b887 5481 1e4f 4182 4af4 ea82
000001c0: 006a 1101 38de 9e81 3037 3c00 ac84 a681
000001d0: 406c 4100 40c4 0d00 30be 3480 a044 1380
000001e0: 4038 9e82 404f 0981 89c0 0083 9052 1d01
000001f0: 7057 0600 5eb7 5a82 e07d 0080 10bd 2280
00000200: 503c 3200 b096 4480 c05c 2d00 e0d8 1800
00000210: 2c76 8082 8006 0d82 bd5c 1783 303d 2100
00000220: 1ddf ae82 e03e 1880 c0c7 1980 b069 e081
00000230: 2c11 8382 e0e7 3100 2077 2880 c085 1d80
00000240: af23 9582 0b21 bb82 d07f 2500 10f4 9480
00000250: 740f b782 b0a1 3d00 e82a 1601 e411 5082
00000260: af50 cb82 6029 1680 554e 8e82 4bc6 fb82
00000270: a020 1680 6063 1d80 e525 cb82 80d2 1300
00000280: 4046 7382 70b5 1e00 b8f8 2782 e0d7 9e81
00000290: 7021 0a00 0072 3e00 e0b3 8b81 507e 3900
000002a0: b055 a680 0834 4a82 8980 1d83 8183 9582
000002b0: 78af 4281 4076 1880 889a 7181 503a 0580
000002c0: 4083 3100 a03a 2400 a0c5 7280 21d0 ce82
000002d0: 38cb ae81 58fe 6e81 f02f 2d00 3656 4083
000002e0: 8432 d481 fe2c 2082 922c f382 e663 0982
000002f0: 80b7 4100 8067 1200 a0c1 0780 74cc 3283
00000300: 4cc3 b281 cb3f 9782 4097 2c80 a5bd ff82
00000310: b269 b782 009e 2681 60d8 3180 5083 2700
00000320: 0e39 5d82 c8e4 2e81 2463 5782 3372 2783
00000330: 2b5b 1f83 e097 4300 2442 ca82 16b1 2682
00000340: 3060 4500 fb8d a282 2092 3e00 5fb0 8382
00000350: 9484 f981 088c 8581 6005 0880 5061 0000
00000360: 10a5 b680 e0a8 3500 30e0 ae80 4062 2680
00000370: 0d5f 8a82 b28d 3482 103b 8400 b27c 5e83
00000380: ed64 1083 00ed 3900 b4e2 9981 908f a600
00000390: a065 1181 049c 0a82 1eed 2f82 f89a 7481
000003a0: f002 a082 80f2 2e80 fb5e dd82 1825 dc81
000003b0: 8850 4181 4d1a ac82 947b 1282 3083 2800
000003c0: b238 4d82 d034 1681 20b2 1800 003b 1700
000003d0: 60b3 1d00 c0ac ff80 fef5 d482 4032 1e80
000003e0: e05d 0500 749e c081 d656 0883 bad4 8882
000003f0: 20ea 2900 4012 2080 907c 3400 5c18 1f82

fc2.bias f4 [200]
-5.261475e-37 -0.049817547 0.05668506 -5.6715444e-35 0.042035397 -4.488554e-38 -5.0058815e-36 -0.0010465906
0.0050675594 -1.387985e-38 -4.2882366e-36 -8.065863e-38 0.051886443 0.034410708 -1.0725418e-34 0.03249841
-3.166253e-38 0.03924571 0.059482343 0.058314797 -1.70819e-35 -0.047674544 -0.0045510945 0.10368354
0.048769403 -8.375824e-34 -0.008660816 0.13126679 0.06509737 -0.0026356163 -0.02906354 0.03455246
-3.0330506e-36 -0.021936815 -0.02238346 0.04383578 0.03041878 0.06422348 -0.025798202 0.07679645
-0.043969974 0.037409373 0.062192194 -0.05625578 -7.03403e-36 0.016105104 -3.288939e-37 -5.9937484e-36
-1.136947e-37 0.01484424 -4.9992244e-37 -0.04120934 -0.078392655 0.085702896 -0.025722448 0.07798775
0.0392474 -0.014465176 -0.019400647 -0.047708753 0.08066013 -2.9346212e-36 0.09484554 0.0627547
-1.5738826e-35 -0.03752903 -0.047239073 -0.029042155 0.06564605 -0.031436592 0.05155799 0.04571358
-1.1800848e-37 -1.6071929e-38 0.103373036 -2.6621788e-37 -2.1334993e-37 -5.3961744e-37 -4.2371163e-38 0.042139128
-4.7759126e-37 -1.249252e-38 -6.49887e-38 -0.0012912741 0.02324118 -0.032417797 0.09154237 0.06047354
-7.509667e-37 -9.60858e-39 -0.022721775 -0.0051441407 -1.5894637e-37 -0.035393883 0.028707942 0.0684435
-0.026885452 -0.01314557 -1.07260215e-32 -6.5701644e-29 0.024824308 -0.022675531 -0.036580037 -0.054480664
0.061864488 -9.732229e-38 0.04978764 0.007805102 0.053650357 -5.6192565e-36 -0.04206202 0.041235246
0.018827507 0.10463697 -3.3423462e-37 -0.060971696 -0.04263772 -5.7913374e-34 0.08475684 -4.3989622e-35
-2.5427296e-37 -0.031997852 0.07790183 0.040095102 -0.016645338 -0.0375781 0.06165514 0.082349055
0.06541558 -1.9705911e-38 -0.034757648 0.02291272 -0.018572561 0.13221547 -5.5271974e-32 0.054134045
-0.0005154155 0.045165006 -7.2247673e-25 -4.7245703e-34 0.06348867 -0.018201707 -0.04177921 -6.8021696e-38
-6.6031296e-37 0.031509407 0.08413588 0.009214646 0.044822995 -0.0367801 0.013255601 0.04919886
0.031338405 -1.0451427e-30 0.08925896 0.06581899 0.024560995 -0.023489246 -0.05203937 -7.3500776e-28
0.024539279 -0.03196611 0.070883624 0.018913208 -4.7097414e-36 -0.0110351425 -0.0004575861 -0.020212343
-4.5037464e-38 -0.03816229 0.060247686 -1.3483985e-34 -0.03669088 0.003334234 -5.7344276e-35 -0.022897061
-0.05202214 0.005939024 -0.06393774 0.006442086 -0.0015204553 -7.775238e-32 -0.02192162 -0.023499401
-0.029903019 -0.045706697 -4.7081943e-33 -0.02189145 -5.6117784e-36 -1.1757253e-33 -0.044817198 -7.345266e-32
-0.025272623 -0.0069373683 -8.4782306e-35 -3.423585e-39 -2.4969701e-37 -6.762155e-38 0.007722111 -0.04422611
00000000: e909 3383 7c0d 4cbd 982e 683d 88c6 9686
00000010: 4f2d 2c3d 5061 7481 39ed d484 c12d 89ba
00000020: c50d a63b 6023 9780 c366 b684 dc92 db81
00000030: e186 543d 3ef2 0c3d b590 0e87 0e1d 053d
00000040: 2063 2c81 1cc0 203d c2a3 733d 7fdb 6e3d
00000050: 5ba5 b585 6246 43bd 5921 95bb 0958 d43d
00000060: 6dc2 473d d12a 8b88 18e6 0dbc cd6a 063e
00000070: c551 853d 4eba 2cbb a916 eebc e186 0d3d
00000080: ff02 8184 d6b4 b3bc 855d b7bc 268d 333d
00000090: ce30 f93c 9a87 833d c056 d3bc 7547 9d3d
000000a0: dc19 34bd 923a 193d 3ebd 7e3d 766c 66bd
000000b0: e798 1585 daee 833c 66d5 df82 24f2 fe84
000000c0: d2c0 1a82 4135 733c 631d 2a83 20cb 28bd
000000d0: 548c a0bd 0085 af3d e2b7 d2bc 0bb8 9f3d
000000e0: e2c1 203d 58ff 6cbc 1bee 9ebc 416a 43bd
000000f0: 2331 a53d 64a6 7984 613e c23d 8985 803d
00000100: 295d a785 0ab8 19bd c27d 41bd d0e9 edbc
00000110: 7071 863d a8c3 00bd 792e 533d 2a3e 3b3d
00000120: f49f 2082 0002 af80 3eb5 d33d b22d b582
00000130: cd32 9182 4f9f 3783 c8b0 6681 149a 2c3d
00000140: 1184 2283 1008 8880 84ea b081 f83f a9ba
00000150: 4a64 be3c 86c8 04bd 917a bb3d 1ab3 773d
00000160: 6d8a 7f83 d0a0 6880 0423 babc 2e90 a8bb
00000170: ba58 5882 2df9 10bd eb2c eb3c 1b2c 8c3d
00000180: e13e dcbc 8460 57bc 50c5 5e8a ce92 a690
00000190: 595c cb3c 09c2 b9bc f3d4 15bd 1e27 5fbd
000001a0: 9e65 7d3d de77 0482 20ee 4b3d f1c1 ff3b
000001b0: 7ac0 5b3d 4904 ef84 3a49 2cbd 4ae6 283d
000001c0: 253c 9a3c e84b d63d e277 e382 75bd 79bd
000001d0: e4a4 2ebd 4073 4088 fe94 ad3d 92e3 6986
000001e0: 990c ad82 2e10 03bd ff8a 9f3d c33a 243d
000001f0: ce5b 88bc 7eeb 19bd 1a8a 7c3d 9fa6 a83d
00000200: 9bf8 853d 1094 d680 095e 0ebd 75b3 bb3c
00000210: 7c25 98bc 7e63 073e 877e 8f8b a9bb 5d3d
00000220: f31c 07ba f1fe 383d 8198 5f97 3300 1d88
00000230: 5906 823d bf1b 95bc ad20 2bbd 342c b981
00000240: 5fb1 6083 0210 013d 6f4f ac3d 07f9 163c
00000250: 5198 373d bba6 16bd 052e 593c be84 493d
00000260: b35c 003d 8795 a98d 67cd b63d 1bcc 863d
00000270: 2434 c93c 856c c0bc 3c27 55bd eaee 6892
00000280: 9906 c93c e5ee 02bd 6f2b 913d dfef 9a3c
00000290: 8b54 c884 becc 34bc 2be8 efb9 5b94 a5bc
000002a0: 1035 7581 1050 1cbd 47c6 763d a03b 3387
000002b0: 2d49 16bd 2a83 5a3b 7e72 9886 9e92 bbbc
000002c0: 2b15 55bd 259c c23b caf1 82bd 2218 d33b
000002d0: 044a c7ba 52db c98b f894 b3bc d181 c0bc
000002e0: 2df7 f4bc f236 3bbd 1c92 c389 b355 b3bc
000002f0: dbb2 ee84 d359 c388 3d92 37bd abb1 be8b
00000300: 8808 cfbc dd52 e3bb d963 e186 9047 2580
00000310: 5bef a982 5815 b881 c309 fd3b 7026 35bd

fc3.weight f4 [1, 200]
-1.1193449e-37 -0.1744124 0.10084149 6.2115084e-35 0.06400754 -2.4160079e-36 1.3932409e-36 0.13991857
0.1822486 1.710212e-39 5.033084e-35 -8.217703e-38 0.122413665 0.22609954 -1.2179976e-33 0.089107126
-1.094156e-39 0.15381184 0.19066341 0.10496907 4.887959e-35 -0.13952339 -0.14579605 0.2268145
0.098282985 -3.6593815e-33 -0.1353485 0.07058847 0.06535371 0.17926519 -0.1981431 0.097242594
2.7512539e-36 -0.1719185 -0.38698077 0.06987678 0.07120808 0.082467355 -0.28410932 0.20154487
-0.24839543 0.120304585 0.091440685 -0.1405691 -3.478462e-35 0.21756603 2.3084115e-36 8.966488e-36
-2.690641e-38 0.20327789 2.995701e-37 0.30247512 -0.20057666 0.076728754 -0.30073375 0.1730243
0.16313629 -0.1525411 -0.122340865 -0.32199392 0.19499972 -1.1573234e-36 0.16282609 0.08553143
-4.975092e-35 -0.15284336 -0.19291842 -0.15024973 0.13861611 -0.11707402 0.09390765 0.12929665
1.7808665e-38 4.185914e-39 0.16401994 -2.5813406e-37 -2.2795179e-36 -1.5960057e-36 2.890108e-37 0.099430285
-1.0064194e-36 7.38944e-40 3.911829e-38 -0.20545611 0.097118564 -0.18175456 0.07530417 0.13319145
1.7621867e-36 -8.830243e-39 -0.2648483 -0.2204292 -4.1597753e-37 -0.192571 0.113449186 0.14326656
-0.3309882 -0.1882886 -2.0292137e-32 2.3206165e-28 0.18763773 -0.16774386 -0.15446408 -0.149407
0.10963738 6.8295476e-38 0.19432059 -0.29806292 0.09559533 -1.3747738e-35 -0.29877084 0.18720871
0.12718225 0.11877399 1.23401715e-36 -0.21803316 -0.19941941 3.0210804e-34 0.071415864 1.5370613e-34
1.3910327e-37 -0.108310625 0.15421924 0.069761716 -0.10311059 -0.089505844 0.14325373 0.08144667
0.2625096 1.4071077e-38 -0.18452197 0.11052513 -0.20737125 0.07177942 2.5821488e-32 0.11606605
0.11189156 0.11951509 -4.342754e-24 3.8144326e-34 0.25390399 -0.17878343 -0.19644907 -4.651002e-37
-6.9007725e-37 0.12011783 0.09708742 0.111673795 0.083325244 -0.13197328 0.23865844 0.06570438
0.13353057 -2.6876036e-30 0.14142874 0.11696362 0.08782787 -0.17251852 -0.14123479 5.7593887e-27
0.11041094 -0.20569082 0.07212643 0.19948019 -1.395101e-35 -0.1877827 -0.2802903 -0.087652884
-2.1151168e-37 -0.14140801 0.14230229 2.3410767e-34 -0.1180959 -0.27908555 2.6958872e-35 -0.14774346
-0.11248695 0.14609051 -0.14033253 -0.15485437 0.25041777 -2.0975188e-32 -0.07241825 -0.24150594
-0.1719932 -0.11355576 -1.5279505e-34 -0.37952375 -2.1438656e-36 5.604742e-33 -0.21840492 -1.086522e-31
-0.33100134 -0.11782006 -4.123241e-34 -4.82114e-39 -7.882437e-38 -9.75436e-39 0.12454432 -0.22613104
00000000: 7a5b 1882 2a99 32be fc85 ce3d 5621 a506
00000010: 6316 833d fe87 4d84 330c ed03 d046 0f3e
00000020: 619f 3a3e 609f 1200 65cd 8506 08b5 df81
00000030: 04b4 fa3d a386 673e e35f ca88 cc7d b63d
00000040: 10ea 0b80 da80 1d3e 453d 433e 06fa d63d
00000050: baf1 8106 38df 0ebe 8f4b 15be 0f42 683e
00000060: 9748 c93d 3801 9889 cc98 0abe b090 903d
00000070: 2ad8 853d 4b91 373e 06e6 4abe 2027 c73d
00000080: 010d 6a04 670b 30be 5822 c6be 8f1b 8f3d
00000090: 8bd5 913d a5e4 a83d c776 91be c761 4e3e
000000a0: 5f5b 7ebe 4062 f63d 4145 bb3d 59f1 0fbe
000000b0: 5ff2 3886 a1c9 5e3e c060 4404 34b2 3e05
000000c0: 107e 1281 1428 503e 79e0 cb02 05de 9a3e
000000d0: f863 4dbe f723 9d3d c6f9 99be 482d 313e
000000e0: 330d 273e bc33 1cbe d98d fabd 63dc a4be
000000f0: 02ae 473e 8be8 c483 e2bb 263e 1a2b af3d
00000100: b942 8486 f882 1cbe 688c 45be 11db 19be
00000110: 62f1 0d3e 81c4 efbd a752 c03d 5766 043e
00000120: 50eb c100 a094 2d00 d8f4 273e 4cad af82
00000130: 81eb 4184 edc5 0784 c8b0 c402 1ba2 cb3d
00000140: bf3b ab83 e00b 0800 f0fa 5401 1663 52be
00000150: 19e6 c63d de1d 3abe 1339 9a3d 5763 083e
00000160: 07e9 1504 2027 6080 329a 87be 31b8 61be
00000170: c18c 0d83 5531 45be 0c58 e83d 78b4 123e
00000180: 4977 a9be bace 40be c1b9 d28a 2816 9311
00000190: 1b24 403e 0cc5 2bbe d52b 1ebe 26fe 18be
000001a0: 9089 e03d 00eb b901 fafb 463e b49b 98be
000001b0: 7cc7 c33d e730 9285 7ef8 98be a4b3 3f3e
000001c0: 103c 023e c73f f33d 07f5 d103 1644 5fbe
000001d0: 9a34 4cbe 05c9 c807 7b42 923d 7c4f 4c07
000001e0: 6a56 3d02 f6d1 ddbd a6eb 1d3e 3bdf 8e3d
000001f0: a52b d3bd d74e b7bd 1bb1 123e 83cd a63d
00000200: a967 863e 7038 9900 54f3 3cbe 005b e23d
00000210: 2159 54be 1701 933d a512 060b 0ab4 ed3d
00000220: 6727 e53d 54c4 f43d 8d00 a898 3583 fd07
00000230: b4ff 813e 0113 37be f229 49be f143 1e83
00000240: 35d2 6a83 5600 f63d c5d5 c63d 3bb5 e43d
00000250: 6da6 aa3d 0124 07be e162 743e 0590 863d
00000260: 3dbc 083e 580b 5a8e b2d2 103e 9f8a ef3d
00000270: 19df b33d b2a8 30be da9f 10be 2427 e413
00000280: 221f e23d 9da0 52be 06b7 933d 8944 4c3e
00000290: 435a 9485 1c4a 40be 3682 8fbe 5b83 b3bd
000002a0: 88f2 8f82 43cd 10be b1b7 113e 5b97 9b07
000002b0: 43dc f1bd 4de4 8ebe 8456 0f06 104a 17be
000002c0: 8f5f e6bd c098 153e 55b3 0fbe 2592 1ebe
000002d0: c236 803e 9dd1 d98a 0550 94bd 554d 77be
000002e0: fc1e 30be ec8f e8bd 7619 4b87 f050 c2be
000002f0: 4261 3684 d7cf e809 8aa5 5fbe e309 0d8c
00000300: 0279 a9be a54b f1bd a804 0988 607f 3480
00000310: 9294 d681 3037 6a80 1811 ff3d e58e 67be
